protein_mpnn/AF-E7EQJ3-F1-model_v4.npz (npz, 65418 bytes, 3 tensors)

embeddings f4 [1, 122, 128]
0.049057163 0.03461032 0.10699654 0.09020191 -0.0739989 -0.109318 0.19639854 -0.056118134
0.11762083 0.012830301 0.014056476 -0.03258316 0.08756824 9.533572e-05 0.0739223 0.10728429
-0.21900958 0.099710956 0.0017850325 0.24142593 0.01578082 -0.0077334885 0.034939673 -0.055694222
-0.05807386 0.0015928112 -0.030270487 0.060538933 -0.12195743 -0.015520573 -0.0008822944 -0.0019092325
-0.062252924 0.05428209 0.13156135 -0.08528419 -0.14080113 -0.24340537 0.054647654 0.117691636
-0.073293895 0.06177134 0.08186698 -0.09968254 0.0013203179 0.11214684 0.43384767 -0.086577535
-0.018710352 0.020711146 0.10670169 0.15226296 0.019726263 -0.044958383 0.07185499 0.03542045
-0.028550051 0.101754606 -0.051659677 0.0054007536 0.03133932 0.006411724 -0.028686002 -0.009732877
0.007989101 0.05549025 0.030093718 -0.008972324 -0.05297724 0.056263376 -0.03409481 0.0006605536
0.06288759 -0.035850063 0.0665386 -0.03888746 -0.0044250507 -0.088195845 0.13685398 0.03257614
-0.042511422 -0.0028895796 -0.17610726 0.0027647698 -0.03403736 -0.19570544 -0.002225517 0.024689378
-0.04408695 -0.10943751 -0.0044288486 0.046474397 -0.08165437 -0.10759626 -0.060276076 -0.01692812
-0.026193336 0.1500651 -0.38623285 0.017169803 0.03635588 0.04280381 -0.35707995 -0.002164748
-0.0068657845 0.079164594 -0.022971218 -0.020356018 0.20421642 -0.03291536 -0.00029998692 0.09922229
-0.087075144 0.058102995 -0.074958846 0.025783464 -0.14372359 0.0005105692 0.08190368 -0.096815236
0.17139643 -0.0008431964 -0.00091264024 0.052377235 -0.0015230938 -0.04971046 0.01418332 0.0010794951
0.110139206 0.07264622 -0.058145165 0.076627 -0.0699902 -0.10141763 0.16328372 -0.1221433
0.19270526 -0.013054146 0.016272116 -0.038106807 0.11593774 0.00013070102 0.08516398 0.12997113
-0.23222804 0.11367829 0.020596795 0.17267144 0.03361017 -0.031924114 -0.15591672 -0.058211
-0.082169384 -0.021161426 -0.03448923 -0.0013033794 -0.059616536 -0.016742945 -0.00086941454 -0.0019255558
-0.07826586 0.09345747 0.07812162 -0.06758698 -0.14058562 -0.31710422 -0.0021252036 0.12043135
-0.094794035 0.043057956 0.08461237 -0.09855337 0.0012202263 0.068722576 0.21387328 -0.14925289
0.0034367219 0.034570284 0.113367215 0.1506136 0.020547612 -0.050152075 0.09551757 0.0204845
0.005007766 0.0070141554 -0.06459509 -0.0012031216 0.041947782 -0.019132914 -0.15352176 0.052511398
-0.0049639717 0.048553042 0.013114378 -0.01727464 -0.027629368 -0.009995498 -0.017750908 0.039104708
0.061480705 -0.018525727 0.10576074 -0.047135912 0.0064838855 -0.017992303 0.13297443 0.020289306
-0.07970603 0.0008599898 -0.16813807 0.0027736637 -0.02557567 -0.12139282 -0.002203085 0.005565569
-0.073634185 0.032040622 -0.0039318204 0.02044951 -0.12888384 -0.15952192 0.0007390678 -0.026429651
0.0019437447 0.16804655 -0.28848496 -0.013380356 0.060457658 0.06317903 -0.31559297 -0.0021425628
0.01172471 0.07934401 -0.039381966 -0.014568295 0.11070806 -0.07428654 0.00097325956 0.041231483
-0.07760998 -0.015356429 -0.07089479 0.02075962 -0.10271847 0.0007151334 -0.014382137 -0.0774429
0.14153704 -0.0010495423 0.005540585 0.04064879 -0.0015214542 -0.0021576565 -0.010003507 0.017873313
00000000: 2af0 483d 8dc3 0d3d 0121 db3d c7bb b83d
00000010: bc8c 97bd 1ee2 dfbd b31c 493e 21dc 65bd
00000020: 31e3 f03d 2f36 523c 224d 663c eb75 05bd
00000030: fa56 b33d faee c738 9364 973d deb7 db3d
00000040: 0c44 60be 4235 cc3d c0f7 e93a 5c38 773e
00000050: c746 813c 3469 fdbb e71c 0f3d a01f 64bd
00000060: dbde 6dbd e0c5 d03a d0f9 f7bc acf7 773d
00000070: d1c4 f9bd 004a 7ebc c649 67ba 363f faba
00000080: ecfc 7ebd e656 5e3d 05b8 063e 7aa9 aebd
00000090: 2c2e 10be 423f 79be 38d6 5f3d 5008 f13d
000000a0: 1c1b 96bd f203 7d3d e0a9 a73d 5c26 ccbd
000000b0: 840e ad3a 3ead e53d 4821 de3e 904f b1bd
000000c0: 7446 99bc 6caa a93c 6a86 da3d d2ea 1b3e
000000d0: f998 a13c 4826 38bd b628 933d 0915 113d
000000e0: cce1 e9bc b864 d03d 1999 53bd cef8 b03b
000000f0: a95d 003d 7019 d23b e8fe eabc a576 1fbc
00000100: b8e4 023c bf49 633d 1a87 f63c a800 13bc
00000110: aafe 58bd 6d74 663d 00a7 0bbd 0029 2d3a
00000120: 35cb 803d 84d7 12bd 6445 883d 7548 1fbd
00000130: 0400 91bb 06a0 b4bd 7323 0c3e 8f6e 053d
00000140: 7520 2ebd 1a5f 3dbb 7655 34be 2431 353b
00000150: c26a 0bbd 0267 48be fbd9 11bb 6141 ca3c
00000160: 8594 34bd c620 e0bd e01f 91bb f05b 3e3d
00000170: 683a a7bd 6e5b dcbd 0ce4 76bd d7ac 8abc
00000180: 6893 d6bc aaaa 193e 50c0 c5be b0a7 8c3c
00000190: e7e9 143d 0c53 2f3d 2fd3 b6be 72de 0dbb
000001a0: 60fa e0bb 0c21 a23d 232e bcbc aac1 a6bc
000001b0: 1c1e 513e 42d2 06bd 9047 9db9 0e35 cb3d
000001c0: 7454 b2bd 68fd 6d3d 0684 99bd d837 d33c
000001d0: 472c 13be b8d7 053a 1ebd a73d 1147 c6bd
000001e0: 8c82 2f3e f409 5dba 403e 6fba 8389 563d
000001f0: 8ca2 c7ba 329d 4bbd 2861 683c d87d 8d3a
00000200: aa90 e13d 8bc7 943d a029 6ebd 9eee 9c3d
00000210: 0657 8fbd 0cb4 cfbd d933 273e 4426 fabd
00000220: 8754 453e 0fe1 55bc 1a4d 853c e215 1cbd
00000230: c470 ed3d ca0c 0939 746a ae3d 2717 053e
00000240: 30cd 6dbe 2ad0 e83d 9cba a83c c8d0 303e
00000250: d1aa 093d dcc2 02bd a2a8 1fbe a86e 6ebd
00000260: 6c48 a8bd ba5a adbc 9444 0dbd 28d6 aaba
00000270: 7830 74bd 8028 89bc 6ce9 63ba ee62 fcba
00000280: da49 a0bd a166 bf3d 3afe 9f3d 0b6b 8abd
00000290: adf5 0fbe 7c5b a2be 0047 0bbb b6a4 f63d
000002a0: 6023 c2bd 8a5d 303d 4049 ad3d 59d6 c9bd
000002b0: 00f0 9f3a 6cbe 8c3d 9901 5b3e c0d5 18be
000002c0: a03a 613b 9299 0d3d 122d e83d 743a 1a3e
000002d0: 7753 a83c 436c 4dbd b79e c33d 1ccf a73c
000002e0: 3018 a43b 00d7 e53b 6e4a 84bd 10b2 9dba
000002f0: 70d1 2b3d a1bc 9cbc cf34 1dbe 3116 573d
00000300: d0a8 a2bb 8edf 463d b0dd 563c 8c83 8dbc
00000310: fc56 e2bc 28c4 23bc 5a6a 91bc 422c 203d
00000320: 31d3 7b3d 44c3 97bc 1699 d83d 9611 41bd
00000330: c676 d43b 9864 93bc 732a 083e c235 a63c
00000340: ea3c a3bd f070 613a 632c 2cbe 5bc6 353b
00000350: 1184 d1bc cc9c f8bd a261 10bb 605f b63b
00000360: 85cd 96bd 073d 033d 80d6 80bb bb85 a73c
00000370: 20fa 03be b759 23be 00be 413a ff82 d8bc
00000380: 40c5 fe3a 6514 2c3e 4db4 93be 4839 5bbc
00000390: 73a2 773d 0264 813d 6795 a1be 3d6a 0cbb
000003a0: 0019 403c 1d7f a23d fc4e 21bd dcaf 6ebc
000003b0: e8ba e23d 8b23 98bd 5822 7f3a 58e2 283d
000003c0: fbf1 9ebd 8899 7bbc 4a31 91bd 1410 aa3c
000003d0: 105e d2bd ca77 3b3a 0ea3 6bbc 629a 9ebd
000003e0: 16ef 103e cc90 89ba cc8d b53b 587f 263d
000003f0: 886b c7ba 7867 0dbb c0e5 23bc 0e6b 923c

mask f4 [122]
1.0 1.0 1.0 1.0 1.0 1.0 1.0 1.0
1.0 1.0 1.0 1.0 1.0 1.0 1.0 1.0
1.0 1.0 1.0 1.0 1.0 1.0 1.0 1.0
1.0 1.0 1.0 1.0 1.0 1.0 1.0 1.0
1.0 1.0 1.0 1.0 1.0 1.0 1.0 1.0
1.0 1.0 1.0 1.0 1.0 1.0 1.0 1.0
1.0 1.0 1.0 1.0 1.0 1.0 1.0 1.0
1.0 1.0 1.0 1.0 1.0 1.0 1.0 1.0
1.0 1.0 1.0 1.0 1.0 1.0 1.0 1.0
1.0 1.0 1.0 1.0 1.0 1.0 1.0 1.0
1.0 1.0 1.0 1.0 1.0 1.0 1.0 1.0
1.0 1.0 1.0 1.0 1.0 1.0 1.0 1.0
1.0 1.0 1.0 1.0 1.0 1.0 1.0 1.0
1.0 1.0 1.0 1.0 1.0 1.0 1.0 1.0
1.0 1.0 1.0 1.0 1.0 1.0 1.0 1.0
1.0 1.0
00000000: 0000 803f 0000 803f 0000 803f 0000 803f
00000010: 0000 803f 0000 803f 0000 803f 0000 803f
00000020: 0000 803f 0000 803f 0000 803f 0000 803f
00000030: 0000 803f 0000 803f 0000 803f 0000 803f
00000040: 0000 803f 0000 803f 0000 803f 0000 803f
00000050: 0000 803f 0000 803f 0000 803f 0000 803f
00000060: 0000 803f 0000 803f 0000 803f 0000 803f
00000070: 0000 803f 0000 803f 0000 803f 0000 803f
00000080: 0000 803f 0000 803f 0000 803f 0000 803f
00000090: 0000 803f 0000 803f 0000 803f 0000 803f
000000a0: 0000 803f 0000 803f 0000 803f 0000 803f
000000b0: 0000 803f 0000 803f 0000 803f 0000 803f
000000c0: 0000 803f 0000 803f 0000 803f 0000 803f
000000d0: 0000 803f 0000 803f 0000 803f 0000 803f
000000e0: 0000 803f 0000 803f 0000 803f 0000 803f
000000f0: 0000 803f 0000 803f 0000 803f 0000 803f
00000100: 0000 803f 0000 803f 0000 803f 0000 803f
00000110: 0000 803f 0000 803f 0000 803f 0000 803f
00000120: 0000 803f 0000 803f 0000 803f 0000 803f
00000130: 0000 803f 0000 803f 0000 803f 0000 803f
00000140: 0000 803f 0000 803f 0000 803f 0000 803f
00000150: 0000 803f 0000 803f 0000 803f 0000 803f
00000160: 0000 803f 0000 803f 0000 803f 0000 803f
00000170: 0000 803f 0000 803f 0000 803f 0000 803f
00000180: 0000 803f 0000 803f 0000 803f 0000 803f
00000190: 0000 803f 0000 803f 0000 803f 0000 803f
000001a0: 0000 803f 0000 803f 0000 803f 0000 803f
000001b0: 0000 803f 0000 803f 0000 803f 0000 803f
000001c0: 0000 803f 0000 803f 0000 803f 0000 803f
000001d0: 0000 803f 0000 803f 0000 803f 0000 803f
000001e0: 0000 803f 0000 803f

design_mask f4 [122]
1.0 1.0 1.0 1.0 1.0 1.0 1.0 1.0
1.0 1.0 1.0 1.0 1.0 1.0 1.0 1.0
1.0 1.0 1.0 1.0 1.0 1.0 1.0 1.0
1.0 1.0 1.0 1.0 1.0 1.0 1.0 1.0
1.0 1.0 1.0 1.0 1.0 1.0 1.0 1.0
1.0 1.0 1.0 1.0 1.0 1.0 1.0 1.0
1.0 1.0 1.0 1.0 1.0 1.0 1.0 1.0
1.0 1.0 1.0 1.0 1.0 1.0 1.0 1.0
1.0 1.0 1.0 1.0 1.0 1.0 1.0 1.0
1.0 1.0 1.0 1.0 1.0 1.0 1.0 1.0
1.0 1.0 1.0 1.0 1.0 1.0 1.0 1.0
1.0 1.0 1.0 1.0 1.0 1.0 1.0 1.0
1.0 1.0 1.0 1.0 1.0 1.0 1.0 1.0
1.0 1.0 1.0 1.0 1.0 1.0 1.0 1.0
1.0 1.0 1.0 1.0 1.0 1.0 1.0 1.0
1.0 1.0
00000000: 0000 803f 0000 803f 0000 803f 0000 803f
00000010: 0000 803f 0000 803f 0000 803f 0000 803f
00000020: 0000 803f 0000 803f 0000 803f 0000 803f
00000030: 0000 803f 0000 803f 0000 803f 0000 803f
00000040: 0000 803f 0000 803f 0000 803f 0000 803f
00000050: 0000 803f 0000 803f 0000 803f 0000 803f
00000060: 0000 803f 0000 803f 0000 803f 0000 803f
00000070: 0000 803f 0000 803f 0000 803f 0000 803f
00000080: 0000 803f 0000 803f 0000 803f 0000 803f
00000090: 0000 803f 0000 803f 0000 803f 0000 803f
000000a0: 0000 803f 0000 803f 0000 803f 0000 803f
000000b0: 0000 803f 0000 803f 0000 803f 0000 803f
000000c0: 0000 803f 0000 803f 0000 803f 0000 803f
000000d0: 0000 803f 0000 803f 0000 803f 0000 803f
000000e0: 0000 803f 0000 803f 0000 803f 0000 803f
000000f0: 0000 803f 0000 803f 0000 803f 0000 803f
00000100: 0000 803f 0000 803f 0000 803f 0000 803f
00000110: 0000 803f 0000 803f 0000 803f 0000 803f
00000120: 0000 803f 0000 803f 0000 803f 0000 803f
00000130: 0000 803f 0000 803f 0000 803f 0000 803f
00000140: 0000 803f 0000 803f 0000 803f 0000 803f
00000150: 0000 803f 0000 803f 0000 803f 0000 803f
00000160: 0000 803f 0000 803f 0000 803f 0000 803f
00000170: 0000 803f 0000 803f 0000 803f 0000 803f
00000180: 0000 803f 0000 803f 0000 803f 0000 803f
00000190: 0000 803f 0000 803f 0000 803f 0000 803f
000001a0: 0000 803f 0000 803f 0000 803f 0000 803f
000001b0: 0000 803f 0000 803f 0000 803f 0000 803f
000001c0: 0000 803f 0000 803f 0000 803f 0000 803f
000001d0: 0000 803f 0000 803f 0000 803f 0000 803f
000001e0: 0000 803f 0000 803f
