protein_mpnn/AF-E5RFN9-F1-model_v4.npz (npz, 9450 bytes, 3 tensors)

embeddings f4 [1, 16, 128]
-0.11676113 0.025103383 0.03296018 0.007197261 -0.048353523 -0.0635399 0.13953106 0.019749694
0.118367165 -0.023748975 0.0021582078 -0.008223848 0.07208794 5.7980273e-05 0.049333826 0.080102056
0.3988803 0.054427356 0.008589765 0.31654462 -0.0033555436 -0.13706517 0.16817212 -0.009494007
-0.005155053 0.07929276 -0.013508141 0.08438158 -0.025367074 0.00076183677 -0.0006825097 -0.0020851723
-0.016541334 0.13128364 0.025893727 -0.07706852 -0.083074495 -0.14984775 0.07230558 0.08294959
-0.2111791 0.029320866 0.025498584 -0.103758715 0.0009955904 0.08774981 0.17684732 -0.26024717
-0.040985435 0.019944075 0.25678748 0.09399205 0.03297893 -0.31613323 0.077381 0.023705965
-0.26311874 -0.10642469 -0.044355173 -0.0077104215 -0.0042134635 -0.026536152 -0.12717023 -0.06540458
0.01307767 0.03402482 0.029471952 0.16708699 -0.073998615 0.087871045 -0.17762798 -0.0009400621
0.018102063 -0.00851883 0.011533527 0.004254898 -0.0031620655 0.03242565 0.122240156 0.035352286
-0.12819429 0.0045058033 -0.23411016 0.0027913847 -0.025484033 -0.3387917 -0.0012405198 0.17497787
-0.025373787 -0.02609811 -0.011514321 0.007210212 0.038514923 0.06534316 -0.015646063 0.006397946
-0.043032542 0.024866374 -0.8363188 0.004698083 0.00021255622 0.021653831 -0.08036263 -0.0022123486
-0.044994935 0.03140401 -0.1563683 -0.011655316 0.051090784 0.07508287 0.014725639 0.044853974
-0.23944081 -0.0070234165 -0.040602986 0.028586771 -0.004623119 -0.00042222315 0.22573932 -0.006995797
0.07081643 -0.0003349284 0.01567952 0.04067178 -0.0014839591 -0.028320152 -0.039152674 0.0007987581
-0.14689738 -0.006937178 -0.13511786 -0.00036018342 -0.018744528 -0.07801183 -0.1513751 -0.016039724
0.20932597 0.01444178 0.019699007 -0.02311289 0.08546297 3.2565848e-05 -0.030102622 0.14413549
0.6114262 0.03462397 0.06052266 0.19289464 -0.018810267 -0.17832336 0.29164967 0.01175496
-0.089756876 0.077604726 0.0012527257 0.06642211 -0.16302878 0.006402582 -0.0005379506 -0.0021923068
-0.026280543 0.1789636 -0.010050252 0.017313078 -0.059977487 0.040018238 0.24434324 0.02283558
-0.33282322 0.11863553 -0.04032464 -0.07882183 0.0005554812 0.021232367 0.35471195 -0.030137286
0.015738018 -0.003605552 0.15623909 0.06638077 0.0037655365 -0.1182581 0.06732959 0.050977096
-0.27578342 -0.047469974 -0.1436485 -0.04636831 0.030080162 -0.0027446412 -0.050411955 0.06867582
-0.003934523 0.026598576 0.01056055 -0.25172514 -0.04232855 0.033808388 -0.2792631 0.14175016
-0.016221348 -0.034910515 -0.017656699 -0.0023650425 0.0024616597 0.73367363 0.3256831 0.016905833
-0.01922984 -0.021545412 -0.09016998 0.0028038835 -0.0054368405 -0.11894939 -0.00049450167 0.028766058
-0.006974007 -0.069937855 -0.03777556 -0.017458886 0.040754065 -0.013059311 -0.051907778 -0.016894279
-0.034854855 0.07857798 -0.68474966 0.06988385 0.024869744 -0.02017197 -0.05542685 -0.0022168963
-0.02672641 0.013129424 0.10325141 0.0069406405 0.06889649 0.033200525 -0.013945254 0.0046615303
-0.11951339 -0.096852414 -0.032495853 -0.0051420107 -0.0020925254 -0.00014247595 0.08683787 -0.15484902
-0.027039118 0.00024165504 0.005341159 0.03317316 -0.0014745047 0.06861667 0.04623258 0.032824192
00000000: 7620 efbd 9ca5 cd3c 4101 073d 00d7 eb3b
00000010: 580e 46bd 3521 82bd 3be1 0e3e 1cca a13c
00000020: 7c6a f23d 368d c2bc b870 0d3b 52bd 06bc
00000030: d8a2 933d d82f 7338 4412 4a3d 8c0c a43d
00000040: 0a3a cc3e 38ef 5e3d 16bc 0c3c 2312 a23e
00000050: aee8 5bbb d05a 0cbe 5035 2c3e c08c 1bbc
00000060: b8eb a8bb 3e64 a23d 4051 5dbc 40d0 ac3d
00000070: 9cce cfbc 00b6 473a 73ea 32ba 63a7 08bb
00000080: b181 87bc 386f 063e 151f d43c 1ad6 9dbd
00000090: f622 aabd b071 19be f314 943d 7ae1 a93d
000000a0: 563f 58be 5032 f03c 68e2 d03c 737f d4bd
000000b0: 787e 823a 2cb6 b33d 7717 353e 1e3f 85be
000000c0: 58e0 27bd c261 a33c a679 833e e77e c03d
000000d0: ea14 073d 37dc a1be ee79 9e3d 0333 c23c
000000e0: 80b7 86be 30f5 d9bd c5ad 35bd b4a7 fcbb
000000f0: 1811 8abb 5862 d9bc ea38 02be d6f2 85bd
00000100: b943 563c 9c5d 0b3d 2a6f f13c da18 2b3e
00000110: 968c 97bd bcf5 b33d 1ce4 35be 806e 76ba
00000120: c74a 943c 9092 0bbc 1ef7 3c3c ac6c 8b3b
00000130: a83a 4fbb c2d0 043d 0c59 fa3d 8fcd 103d
00000140: 5d45 03be 6ba5 933b 93ba 6fbe aaef 363b
00000150: e4c3 d0bc 1b76 adbe f098 a2ba 662d 333e
00000160: b0dc cfbc b4cb d5bc 90a6 3cbc a443 ec3b
00000170: d3c1 1d3d a2d2 853d 2c2c 80bc dca5 d13b
00000180: e442 30bd 91b4 cb3c fd18 56bf 60f2 993b
00000190: a0e1 5e39 6063 b13c 2a95 a4bd 0dfd 10bb
000001a0: 9c4c 38bd 7ea1 003d 031f 20be f0f5 3ebc
000001b0: 9244 513d 0cc5 993d ce43 713c cdb8 373d
000001c0: f92f 75be b024 e6bb 514f 26bd ce2e ea3c
000001d0: 887d 97bb d55d ddb9 3528 673e 003d e5bb
000001e0: 3408 913d 5499 afb9 5672 803c 7497 263d
000001f0: 6881 c2ba aaff e7bc 8e5e 20bd c063 513a
00000200: 446c 16be 4451 e3bb 565c 0abe 00d7 bcb9
00000210: 208e 99bc abc4 9fbd 1302 1bbe bd65 83bc
00000220: 8c59 563e 379d 6c3c d05f a13c 3e57 bdbc
00000230: 3607 af3d 5097 0838 c699 f6bc 4198 133e
00000240: 6d86 1c3f ddd1 0d3d 9ce6 773d 2c86 453e
00000250: fd17 9abc 669a 36be 1b53 953e e097 403c
00000260: 74d2 b7bd 3aef 9e3d 8032 a43a 5108 883d
00000270: 04f1 26be c0cc d13b 4105 0dba ceac 0fbb
00000280: 4b4a d7bc 3c42 373e d0a9 24bc 28d4 8d3c
00000290: f4aa 75bd 2aea 233d 1d35 7a3e af11 bb3c
000002a0: ce67 aabe 2ff7 f23d 732b 25bd 576d a1bd
000002b0: b69d 113a 80ef ad3c ce9c b53e 78e2 f6bc
000002c0: 04ed 803c 204b 6cbb 24fd 1f3e a4f2 873d
000002d0: 38c7 763b 4d31 f2bd 19e4 893d 5ccd 503d
000002e0: 7c33 8dbe e06f 42bd 9818 13be b2ec 3dbd
000002f0: ac6a f63c 70df 33bb c47c 4ebd e9a5 8c3d
00000300: 2ced 80bb 42e5 d93c 2806 2d3c 1ee2 80be
00000310: b460 2dbd aa7a 0a3d 93fb 8ebe f426 113e
00000320: a2e2 84bc 54fe 0ebd c8a4 90bc d4fe 1abb
00000330: cc53 213b 09d2 3b3f efbf a63e 1a7e 8a3c
00000340: e687 9dbc 0180 b0bc 0aab b8bd 5cc1 373b
00000350: 8627 b2bb bd9b f3bd 72a1 01ba cca6 eb3c
00000360: 3686 e4bb 943b 8fbd 8cba 1abd f005 8fbc
00000370: bced 263d b8f6 55bc 409d 54bd df65 8abc
00000380: f7c3 0ebd 7eed a03d c14b 2fbf 441f 8f3d
00000390: a2bb cb3c b03f a5bc 4407 63bd 5949 11bb
000003a0: 58f1 dabc cc1c 573c 7a75 d33d 506e e33b
000003b0: 9a19 8d3d 46fd 073d a27a 64bc c0bf 983b
000003c0: 70c3 f4bd 8f5a c6bd 5f1a 05bd 507e a8bb
000003d0: c022 09bb 9965 15b9 0ed8 b13d be90 1ebe
000003e0: 2481 ddbc c864 7d39 e404 af3b 94e0 073d
000003f0: 2b44 c1ba e686 8c3d 605e 3d3d a972 063d

mask f4 [16]
1.0 1.0 1.0 1.0 1.0 1.0 1.0 1.0
1.0 1.0 1.0 1.0 1.0 1.0 1.0 1.0
00000000: 0000 803f 0000 803f 0000 803f 0000 803f
00000010: 0000 803f 0000 803f 0000 803f 0000 803f
00000020: 0000 803f 0000 803f 0000 803f 0000 803f
00000030: 0000 803f 0000 803f 0000 803f 0000 803f

design_mask f4 [16]
1.0 1.0 1.0 1.0 1.0 1.0 1.0 1.0
1.0 1.0 1.0 1.0 1.0 1.0 1.0 1.0
00000000: 0000 803f 0000 803f 0000 803f 0000 803f
00000010: 0000 803f 0000 803f 0000 803f 0000 803f
00000020: 0000 803f 0000 803f 0000 803f 0000 803f
00000030: 0000 803f 0000 803f 0000 803f 0000 803f
