protein_mpnn/B0LXF2.npz (npz, 11562 bytes, 3 tensors)

embeddings f4 [1, 20, 128]
000000 e1 cb 18 be d9 28 25 3c 4e 20 8a 3d e0 85 e5 3b
       -0.14921524 0.01008054 0.06744443 0.0070044845
000010 34 d8 1e bd 23 f0 37 bd bf 81 58 3e 69 19 7d 3d
       -0.038780406 -0.044906747 0.21143244 0.06179181
000020 9b 71 b5 3d 07 4b 21 bd 6c 23 64 3c 5d c7 83 bb
       0.08859559 -0.039378192 0.013924461 -0.0040215687
000030 f0 79 19 3d 00 5f ee 37 2e b2 26 3d 36 aa 19 3d
       0.037469804 2.8416049e-05 0.04069727 0.03751584
000040 86 61 c5 3e a4 59 d0 3d 38 fb 13 bc 2d 75 94 3e
       0.38550967 0.101733476 -0.009032063 0.28995648
000050 95 51 a5 3c 78 9e 93 bd 40 db bc 3d 20 f5 a7 bc
       0.020180503 -0.0720796 0.09221506 -0.020502627
000060 b0 1b bf 3b 28 d3 80 3d c0 bd 6e bc 15 f1 b4 3d
       0.005832158 0.06290275 -0.014571607 0.08835045
000070 26 4e 95 bd 00 e0 48 3b 2e 5e 36 ba 27 08 09 bb
       -0.07290296 0.0030651093 -0.0006956783 -0.00209094
000080 b0 ee 0d 3b ae 71 5c 3d f8 25 9a bb 61 1f a6 bd
       0.0021657161 0.05381935 -0.0047042333 -0.08111454
000090 c0 da b7 bd 7e 93 9a be 76 17 57 3e 46 bd 96 3d
       -0.0897727 -0.30190653 0.21005043 0.0736032
0000a0 2d ce 1d be 70 ea 79 bc bc f3 fe 3d 71 cc c6 bd
       -0.15410681 -0.015253648 0.124488324 -0.09706963
0000b0 53 37 86 3a aa 25 9c 3d d0 bf 56 3e 7b 15 60 be
       0.0010239877 0.07624371 0.20971608 -0.21883194
0000c0 03 96 a2 bd 28 c9 35 3c ea ab 58 3e fd 67 bb 3d
       -0.07938769 0.011095323 0.2115933 0.091506936
0000d0 48 76 b7 3c e6 ae a8 be 84 8d cc 3d aa 09 aa 3c
       0.022395268 -0.32945937 0.099879295 0.020756561
0000e0 d3 44 e8 bd ac 63 82 bd e7 50 7c bd 00 f5 e5 b8
       -0.11341252 -0.06366667 -0.061600592 -0.00010965206
0000f0 a6 7f b1 bc 99 cb 9d bc cf ee d0 bd 20 2b 64 bd
       -0.021667313 -0.019262122 -0.10201799 -0.05570519
000100 95 e5 ba 3c f8 92 ad 3c 0b 0e 2c 3d 90 a1 27 3e
       0.022814551 0.021188244 0.04200558 0.16370225
000110 b0 60 39 bd 90 5c 0e 3e 41 8a ef bd 28 0a 98 bd
       -0.045258224 0.13902497 -0.11696292 -0.07423812
000120 e2 0a 14 3d 28 7a 61 bc 04 73 fe bc e6 90 ba 3c
       0.03614319 -0.0137620345 -0.031060703 0.022774171
000130 00 9c 8e ba 44 5a 8a be ea 50 04 3f c1 1c 1a 3d
       -0.0010880232 -0.27021992 0.51685965 0.037625078
000140 02 87 fa bd 4a ae 70 3c d8 bc 62 be 3a 5b 37 3b
       -0.12232782 0.014689991 -0.2214235 0.002797796
000150 5e 98 14 bd 1d c9 b3 be a8 05 9c ba 9c 64 2f 3e
       -0.03627812 -0.35114375 -0.0011903541 0.17128223
000160 f1 4c 0c bd fd 86 4f be c0 1d 66 bb e9 95 c9 3c
       -0.034253065 -0.20266338 -0.0035112947 0.024607616
000170 c0 27 ec bb c0 62 14 3a 10 c3 11 bd c2 39 1e 3c
       -0.007206887 0.0005660467 -0.035586417 0.009657325
000180 d6 63 2e bd 8c 1a 1f 3d 27 01 11 bf 80 5c 78 3a
       -0.04257568 0.038843676 -0.56642383 0.0009474233
000190 6a 4e 14 bc 08 90 b2 3c 9c 3d 57 be 5a 8d 11 bb
       -0.0090518985 0.021797195 -0.21019596 -0.0022209496
0001a0 48 a3 7d bd 66 28 1d 3d b8 95 a8 bb 80 d2 7d bc
       -0.061923295 0.038368605 -0.005144801 -0.015492082
0001b0 fe 12 a8 3d 02 ba b0 3d 1c 86 a1 3c 20 54 cf 3d
       0.082067475 0.08629228 0.019717269 0.101234674
0001c0 a8 06 2c be e0 a3 a9 3d ad 66 0b bd be 4c 21 3d
       -0.16799414 0.0828321 -0.034033466 0.039379828
0001d0 30 63 37 bb 50 59 80 ba e5 ad 25 3e b8 f9 96 bc
       -0.0027982704 -0.0009792242 0.16179617 -0.018429622
0001e0 5e 69 08 3e 88 dc 01 ba a0 f7 b9 3b 51 b6 ea 3c
       0.13321444 -0.0004953821 0.005675271 0.028651388
0001f0 86 a6 c3 ba 20 cf 82 3c 3c a7 bd bc 1f 4d e5 bc
       -0.0014926947 0.015967906 -0.023151033 -0.027990876
000200 d0 1f 6d be bd ae 7b bc 88 3f 69 bc 60 d7 2d bd
       -0.23156667 -0.015361485 -0.014236338 -0.042441726
000210 c0 d8 07 bc 53 84 3d bc 72 60 4c 3e 58 3f 12 3a
       -0.008291423 -0.011567193 0.19958666 0.0005578897
000220 3b a9 42 3d 4a 64 e5 bc f7 24 8f 3c f0 b5 18 bc
       0.047524672 -0.028001923 0.01747368 -0.009320721
000230 d0 7f f3 3c ca e4 84 38 c8 76 aa 3c 00 74 29 b9
       0.029724032 6.336866e-05 0.020808592 -0.0001616031
000240 c9 0c 1b 3f 49 22 6e 3e 60 22 71 bb 75 13 8a 3e
       0.60566384 0.23255266 -0.003679417 0.2696797
000250 19 1d ed 3b 66 23 a1 bd cb e8 ac 3e 60 c1 44 bc
       0.0072361347 -0.0786808 0.33771357 -0.012008995
000260 7e 64 80 bc 44 24 92 3d 80 4b 87 3a ec 80 85 bb
       -0.015672918 0.07135823 0.0010322183 -0.0040742066
000270 6e 44 a8 bc 00 ca ba 3a b8 60 12 ba aa 94 0d bb
       -0.020540442 0.0014250875 -0.000558387 -0.0021603503
000280 20 ff 5b 3c 9c fa ac bc 2a f0 6d 3d 24 77 54 bd
       0.013427526 -0.021115594 0.058090366 -0.051871434
000290 d4 f0 43 bd 6c ff eb bd 52 f2 06 3e b4 47 0e 3d
       -0.047837093 -0.11523327 0.13178375 0.03473635
0002a0 de 89 49 be b8 6e 08 bd e8 8b 12 3e 0e 05 30 bd
       -0.19681498 -0.033308715 0.14311182 -0.04297357
0002b0 60 5d 0e 3a 10 85 44 3d 19 e1 aa 3e 24 1c 51 bd
       0.0005430784 0.04797846 0.3337486 -0.051052228
0002c0 b2 04 32 bd 40 4c 41 bc dc 09 2e 3e cc 2c 61 3d
       -0.04346151 -0.011797965 0.16995949 0.054974362
0002d0 fe 11 83 3c 10 88 70 be 96 10 c4 3d b9 e6 45 3d
       0.01599979 -0.23489404 0.09573476 0.048315737
0002e0 17 1e 83 bd 37 2f 40 be d2 42 c6 bd 78 86 3c bb
       -0.064022236 -0.18768011 -0.09680714 -0.0028766673
0002f0 92 1a a5 bc e8 d9 48 bd f3 69 88 be 21 dd 42 bd
       -0.020154271 -0.049035937 -0.26643333 -0.047574166
000300 08 17 0b 3b aa 88 ad 3c a9 2b 12 3d 8f da 0a 3e
       0.0021223444 0.02118333 0.03568617 0.13559936
000310 50 0d 79 bd 2e cd 9a 3d 7c 59 45 be 40 34 85 3b
       -0.06080371 0.07558666 -0.19272417 0.0040650666
000320 a0 75 27 bb 3c fc 27 3c b4 8c 1c bc 35 5f c7 3c
       -0.0025552288 0.010253008 -0.009555031 0.02433739
000330 20 d8 df ba 28 a9 8c bc b2 a4 be 3e ae d2 e7 3c
       -0.001707796 -0.017170504 0.37235028 0.028298702
000340 44 fd eb bd 0c c3 29 3b d1 b4 66 be 23 de 38 3b
       -0.11522916 0.002590361 -0.22529913 0.0028208576
000350 b7 e4 a1 bc e0 f1 3f be 78 3d a8 b9 77 03 18 3e
       -0.01976238 -0.18744612 -0.00032089255 0.14845072
000360 5e 53 1f bd 87 b8 e3 3d 50 20 ce bc 10 31 29 3b
       -0.038897865 0.1111918 -0.025161892 0.0025816597
000370 46 fc af bd 64 bb a0 3c 78 44 36 bc 1f 51 e2 bb
       -0.08593039 0.019620605 -0.011124723 -0.006906643
000380 c7 cc 9f bd 0c 6b 79 3c 8b 88 67 bf f8 15 a5 bc
       -0.0780273 0.015223276 -0.90442723 -0.020152077
000390 c4 84 06 3c b0 af 13 3c 32 8a b1 bd 6e 28 0f bb
       0.008210365 0.009014055 -0.08668937 -0.0021844166
0003a0 c0 79 49 bd a0 43 f9 3c c0 5e fd bb bc ad 2d bc
       -0.049188375 0.030427754 -0.0077322423 -0.0106005035
0003b0 98 f7 d0 3d c7 10 8b 3d 74 8f c0 3b 7a 8e ba 3d
       0.10203475 0.067903094 0.005876476 0.091092065
0003c0 b2 28 da bd 64 eb a1 bc 4a e4 fc bc f8 a5 fc 3b
       -0.10652293 -0.019765563 -0.030870575 0.0077102147
0003d0 16 fe d7 bc 00 ec 6e ba 1f 5c 5f 3e 41 b6 b6 bd
       -0.026366275 -0.0009114146 0.21812485 -0.08921481
0003e0 b0 89 19 3d 40 11 49 b8 2c 92 77 3c 5b a8 2c 3d
       0.037484825 -4.79382e-05 0.015110534 0.042152744
0003f0 83 d4 c0 ba 7c 98 5c bc ee b7 23 bd 20 99 73 ba
       -0.0014711771 -0.0134640895 -0.03997033 -0.0009292532

mask f4 [20]
000000 00 00 80 3f 00 00 80 3f 00 00 80 3f 00 00 80 3f
       1.0 1.0 1.0 1.0
000010 00 00 80 3f 00 00 80 3f 00 00 80 3f 00 00 80 3f
       1.0 1.0 1.0 1.0
000020 00 00 80 3f 00 00 80 3f 00 00 80 3f 00 00 80 3f
       1.0 1.0 1.0 1.0
000030 00 00 80 3f 00 00 80 3f 00 00 80 3f 00 00 80 3f
       1.0 1.0 1.0 1.0
000040 00 00 80 3f 00 00 80 3f 00 00 80 3f 00 00 80 3f
       1.0 1.0 1.0 1.0

design_mask f4 [20]
000000 00 00 80 3f 00 00 80 3f 00 00 80 3f 00 00 80 3f
       1.0 1.0 1.0 1.0
000010 00 00 80 3f 00 00 80 3f 00 00 80 3f 00 00 80 3f
       1.0 1.0 1.0 1.0
000020 00 00 80 3f 00 00 80 3f 00 00 80 3f 00 00 80 3f
       1.0 1.0 1.0 1.0
000030 00 00 80 3f 00 00 80 3f 00 00 80 3f 00 00 80 3f
       1.0 1.0 1.0 1.0
000040 00 00 80 3f 00 00 80 3f 00 00 80 3f 00 00 80 3f
       1.0 1.0 1.0 1.0
