protein_mpnn/B5A232.npz (npz, 20538 bytes, 3 tensors)

embeddings f4 [1, 37, 128]
-0.22611967 0.047203843 0.10417662 -0.06623624 -0.0236689 -0.056072243 0.34643424 0.11081274
0.112595536 -0.04866826 0.020430176 0.0022373106 -0.011412442 -1.1633645e-05 0.015452296 0.03955567
0.35561126 0.2431382 0.0093073845 0.3105763 -0.007854773 -0.16098863 0.20639226 -0.048745662
-0.12877241 0.14054142 -0.007356435 0.13599096 0.077114485 -0.0050243437 -0.0005727013 -0.0020341163
-0.0067506023 0.0837268 -0.049712252 -0.07466189 -0.07726446 -0.25665167 0.5330348 0.03643509
0.036004096 -0.053984854 0.16579917 -0.09460082 0.0009309937 0.09131217 0.3010237 -0.23577903
-0.11246734 -0.019240536 0.24176408 0.06123148 0.04165995 -0.27644882 0.10997547 0.03315741
-0.03936839 0.011989683 0.057101794 0.020186774 -0.013109754 -0.010091711 0.02836579 -0.106597066
0.037127163 -0.005768125 0.05912293 0.3148971 -0.08732245 0.14405361 -0.04632348 -0.10824183
-0.0460026 -0.0072289556 0.055280358 0.043384958 -0.025786141 -0.40521377 0.47340387 0.045302924
-0.11320422 0.019539317 -0.229024 0.002786713 -0.051120922 -0.38778085 -0.00042560464 0.27597526
-0.05060505 -0.11703108 -0.023237348 0.02394138 -0.025271535 0.04963693 0.01703173 -0.00036230183
-0.012115944 0.066823125 -0.40376794 -0.07989422 -0.034910604 0.012105897 -0.090247124 -0.002251858
-0.012345582 0.047033526 0.04373782 -0.0002033487 0.10016167 0.09720807 0.022822643 0.19720635
-0.1638147 0.13915354 -0.032216597 0.06478316 0.020107757 -0.001240067 0.31895405 0.11207692
0.18267426 -0.0001307939 0.0049050543 -0.017323988 -0.0014560571 0.06429359 -0.04554818 -0.019913748
-0.31519958 -0.016975487 -0.012600433 -0.02517996 0.0071475357 8.472055e-05 0.121489495 0.014078833
0.1338838 -0.078217775 -0.038789995 -0.014487431 0.07396392 9.3645576e-05 0.014228597 -0.043316633
0.57511646 0.1584714 0.0050247125 0.42712426 -0.008255728 -0.010329209 0.6418245 -0.021217018
-0.06782377 0.062020645 0.0040914863 0.06383983 -0.057429045 -0.04155469 -0.00045525003 -0.0022120054
0.014929116 -0.044745293 0.047363285 -0.077208616 -0.043684173 0.1839163 0.33632287 0.012511598
-0.13332514 0.013974011 -0.04087954 -0.03742678 0.00036098747 0.14780279 0.4360145 -0.07711442
-0.06368455 -0.030212991 0.008683927 0.031670637 0.026517306 0.11330443 0.12715209 -0.011756565
-0.051821776 0.06112799 0.08827742 -0.010086965 -0.0031399727 -0.045502096 -0.12566794 -0.054480694
0.0010795724 0.02743436 0.056973528 -0.15770227 -0.10223416 -0.0022564512 -0.26989764 0.10487041
0.0040634945 0.01974181 0.013076376 0.039038137 0.0010569952 -0.10590893 0.2620726 0.013916396
-0.03594272 0.00906653 -0.013929107 0.002827873 -0.011064881 -0.07791297 0.00013756374 -0.03893791
-0.040755235 -0.038712755 0.016886085 0.00022746343 -0.15989853 0.122816 0.015629366 -4.2957254e-06
-0.10713525 0.088073164 -0.8138133 -0.011589516 -0.012926446 -0.039047137 -0.23131754 -0.002216536
-0.032021 0.03856373 0.07231865 0.0006315261 0.055753678 -0.041916184 -0.019148918 0.048163846
-0.12082851 0.079649545 -0.024173714 -0.017377846 -0.024985502 -0.0011768719 0.31954247 -0.12951829
0.05697746 -2.293475e-05 0.004925439 0.037087124 -0.0014416382 -0.0021816492 -0.05069384 -0.0028295685
00000000: ea8b 67be d158 413d 8d5a d53d dea6 87bd
00000010: 48e5 c1bc 02ac 65bd d45f b13e caf1 e23d
00000020: 7d98 e63d 5f58 47bd 2f5d a73c d89f 123b
00000030: 40fb 3abc 202e 43b7 a02b 7d3c 2005 223d
00000040: ae12 b63e 38f9 783e 007e 183c db03 9f3e
00000050: 4eb1 00bc 34da 24be 7e58 533e 88a9 47bd
00000060: eadc 03be 17ea 0f3e 400e f1bb 3741 0b3e
00000070: 33ee 9d3d 40a3 a4bb 5521 16ba cf4e 05bb
00000080: 2834 ddbb f578 ab3d 139f 4bbd 55e8 98bd
00000090: d43c 9ebd d967 83be f874 083f f63c 153d
000000a0: 0879 133d 391f 5dbd 42c7 293e 13be c1bd
000000b0: ee0d 743a e001 bb3d c71f 9a3e 0f70 71be
000000c0: 4755 e6bd 549e 9dbc 0191 773e dccd 7a3d
000000d0: a0a3 2a3d b38a 8dbe d23a e13d 10d0 073d
000000e0: c040 21bd 6070 443c 92e3 693d bc5e a53c
000000f0: 4bca 56bc b457 25bc 605f e83c 904f dabd
00000100: a712 183d 8a02 bdbb e32a 723d 313a a13e
00000110: 1dd6 b2bd ca82 133e b0bd 3dbd e4ad ddbd
00000120: 396d 3cbd e0e0 ecbb a86d 623d 6db4 313d
00000130: 753d d3bc 2e78 cfbe fe61 f23e 8f8f 393d
00000140: 9dd7 e7bd eb10 a03c 4485 6abe 49a1 363b
00000150: 2c64 51bd 368b c6be b023 dfb9 a14c 8d3e
00000160: 3e47 4fbd fead efbd 405c bebc b720 c43c
00000170: 4006 cfbc 1850 4b3d 2086 8b3c 54f3 bdb9
00000180: f481 46bc 90da 883d acba cebe 959f a3bd
00000190: 6cfe 0ebd d057 463c 7cd3 b8bd e893 13bb
000001a0: 2045 4abc 3aa6 403d 6e26 333d 003a 55b9
000001b0: 9021 cd3d 0615 c73d 8df6 ba3c 76f0 493e
000001c0: 0abf 27be 447e 0e3e 8df5 03bd 09ad 843d
000001d0: 06b9 a43c be89 a2ba f24d a33e 9688 e53d
000001e0: f60e 3b3e b825 09b9 94ba a03b 09eb 8dbc
000001f0: 2bd9 beba 5cac 833d ba90 3abd 2822 a3bc
00000200: d761 a1be 2d10 8bbc 0c72 4ebc 3446 cebc
00000210: e035 ea3b 00ac b138 7ccf f83d e8aa 663c
00000220: d618 093e a430 a0bd 42e2 1ebd b15c 6dbc
00000230: 657a 973d 9663 c438 101f 693c c86c 31bd
00000240: d53a 133f 5446 223e 58a6 a43b 08b0 da3e
00000250: 0843 07bc d83b 29bc 9c4e 243f 50cf adbc
00000260: 30e7 8abd 5c09 7e3d e011 863b 75be 823d
00000270: b83a 6bbd 4035 2abd a0ae eeb9 4bf7 10bb
00000280: 4099 743c d746 37bd 0100 423d 8d1f 9ebd
00000290: 2dee 32bd 8e54 3c3e 8332 ac3e 72fd 4c3c
000002a0: 6386 08be 40f3 643c 4e71 27bd d34c 19bd
000002b0: eb42 bd39 9d59 173e 4b3d df3e 2aee 9dbd
000002c0: 0c6d 82bd 3c81 f7bc 0847 0e3c 12b9 013d
000002d0: d23a d93c 270c e83d 2834 023e 9c9e 40bc
000002e0: 1243 54bd 5861 7a3d cbca b43d cc43 25bc
000002f0: 00c8 4dbb 6860 3abd 19af 00be 2627 5fbd
00000300: 7080 8d3a 06be e03c 135d 693d b47c 21be
00000310: 2560 d1bd f8e0 13bb 0630 8abe 4cc6 d63d
00000320: 1027 853b 94b9 a13c 4c3e 563c 74e6 1f3d
00000330: e08a 8a3a c8e6 d8bd 612e 863e 9801 643c
00000340: ac38 13bd c88b 143c e936 64bc d653 393b
00000350: 7a49 35bc d690 9fbd fc3e 1039 5c7d 1fbd
00000360: f6ee 26bd 4491 1ebd b054 8a3c 4083 6e39
00000370: 71bc 23be f486 fb3d 2809 803c 0024 90b6
00000380: ba69 dbbd b45f b43d 1256 50bf f4e1 3dbc
00000390: 72c9 53bc e4ef 1fbd 81de 6cbe 4e43 11bb
000003a0: 7428 03bd 00f5 1d3d cd1b 943d 008d 253a
000003b0: f85d 643d 4eb0 2bbd 31de 9cbc 7447 453d
000003c0: f074 f7bd 4d1f a33d f407 c6bc fc5b 8ebc
000003d0: 65ae ccbc 4541 9aba 129b a33e 71a0 04be
000003e0: 3261 693d 0064 c0b7 9465 a13b abe8 173d
000003f0: 5af5 bcba 00fa 0ebb 58a4 4fbd 4870 39bb

mask f4 [37]
1.0 1.0 1.0 1.0 1.0 1.0 1.0 1.0
1.0 1.0 1.0 1.0 1.0 1.0 1.0 1.0
1.0 1.0 1.0 1.0 1.0 1.0 1.0 1.0
1.0 1.0 1.0 1.0 1.0 1.0 1.0 1.0
1.0 1.0 1.0 1.0 1.0
00000000: 0000 803f 0000 803f 0000 803f 0000 803f
00000010: 0000 803f 0000 803f 0000 803f 0000 803f
00000020: 0000 803f 0000 803f 0000 803f 0000 803f
00000030: 0000 803f 0000 803f 0000 803f 0000 803f
00000040: 0000 803f 0000 803f 0000 803f 0000 803f
00000050: 0000 803f 0000 803f 0000 803f 0000 803f
00000060: 0000 803f 0000 803f 0000 803f 0000 803f
00000070: 0000 803f 0000 803f 0000 803f 0000 803f
00000080: 0000 803f 0000 803f 0000 803f 0000 803f
00000090: 0000 803f

design_mask f4 [37]
1.0 1.0 1.0 1.0 1.0 1.0 1.0 1.0
1.0 1.0 1.0 1.0 1.0 1.0 1.0 1.0
1.0 1.0 1.0 1.0 1.0 1.0 1.0 1.0
1.0 1.0 1.0 1.0 1.0 1.0 1.0 1.0
1.0 1.0 1.0 1.0 1.0
00000000: 0000 803f 0000 803f 0000 803f 0000 803f
00000010: 0000 803f 0000 803f 0000 803f 0000 803f
00000020: 0000 803f 0000 803f 0000 803f 0000 803f
00000030: 0000 803f 0000 803f 0000 803f 0000 803f
00000040: 0000 803f 0000 803f 0000 803f 0000 803f
00000050: 0000 803f 0000 803f 0000 803f 0000 803f
00000060: 0000 803f 0000 803f 0000 803f 0000 803f
00000070: 0000 803f 0000 803f 0000 803f 0000 803f
00000080: 0000 803f 0000 803f 0000 803f 0000 803f
00000090: 0000 803f
