protein_mpnn/W8JJB1.npz (npz, 55914 bytes, 3 tensors)

embeddings f4 [1, 104, 128]
0.07714759 0.01778607 -0.08651986 0.028725244 -0.04210238 -0.0766646 -0.25758645 0.0479029
0.047058027 -0.014881333 0.0012927018 0.018867977 0.06185572 7.9427205e-05 0.072552666 0.007789716
0.2545659 -0.0066066533 -0.010446798 0.24302778 0.030183049 -0.23030356 -0.5013111 -0.027794898
-0.17124829 0.10537096 -0.019820854 0.11166506 -0.11697326 -0.041688293 -0.0007052755 -0.0021045762
-0.032149132 0.031047054 -0.034036834 0.030430574 -0.08368111 -0.35931978 0.15601794 0.060042784
0.13826218 0.013707407 0.1286071 -0.08279954 0.0007583336 0.11450474 0.07874713 -0.1788565
-0.0018618777 -0.0037060156 0.11327569 0.079923436 0.022234423 -0.34359106 0.26263165 0.124381825
-0.1551683 0.020754904 -0.022014502 0.0022504441 0.0031463131 0.019766841 0.13245876 -0.06847224
0.060104422 0.028362047 0.0432115 0.05903685 -0.14450675 0.07299951 -0.19767135 0.015984442
0.007867526 -0.0148182735 -0.0061153285 0.02153093 0.010335749 -0.57360804 0.011380408 0.046441425
-0.14249751 0.02044456 -0.2787636 0.0027867125 -0.033199713 -0.16089688 -0.00097400707 0.25283614
0.112425044 -0.1838739 0.060736954 0.04561001 -0.16318059 0.056801576 -0.08311502 0.020744352
-0.0896728 0.016576283 -0.41364264 0.07598122 -0.009979159 0.00882192 -0.038081795 -0.0022014137
-0.07369898 0.044598762 0.07746987 0.0026860572 0.094761625 -0.008496612 0.030233195 0.068481356
-0.13521044 0.102555834 -0.040023513 0.101946294 0.045532156 -0.0005944088 0.23652165 -0.18016322
0.20327008 -0.0005913689 0.022390971 0.01917871 -0.0014319641 -0.06566072 -0.12156625 -0.02644314
0.040563956 -0.010290012 -0.23943204 -0.093550846 -0.020376638 -0.08877868 -0.47038683 -0.021284759
0.31842208 0.06474276 -0.00661462 -0.03055134 0.083457716 0.00019984924 -0.1840356 0.008126065
0.38522047 -0.011832826 0.047787245 0.19110706 -0.021533314 0.031076297 0.33966663 -0.01512593
-0.19831656 0.0331613 -0.007717207 0.023767143 -0.27299207 -0.047124505 -0.00043784076 -0.0021800469
-0.0549499 0.06907835 -0.12413384 0.09212308 -0.07537241 0.09695464 0.2990185 -0.031626496
-0.015501857 0.05740253 0.2062825 -0.1956078 0.00056423317 0.38331336 0.34610197 -0.19800462
0.0097025335 0.017916124 -0.020366173 0.028696427 -0.009432754 0.59883773 0.17356004 0.011263292
-0.30775943 0.07113373 0.0037908293 0.061243437 0.06864585 -0.02685972 0.22369342 0.18947667
0.011188588 0.015236882 0.020366028 0.16213381 -0.08975927 0.063491836 -0.2308765 0.04760711
-0.07853353 0.0891269 0.054851532 0.00094827916 -0.004070228 0.3259765 0.5320223 -0.004871104
-0.065573566 0.017916657 -0.16650335 0.0027887817 -0.012375366 0.37336034 -6.7412155e-05 0.057422645
-0.009227522 -0.093385965 0.04582259 -0.102392875 -0.22716774 0.020546041 0.057630822 -0.03314078
-0.06407786 0.17431797 -0.26273158 -0.007920258 0.033784814 -0.04243678 -0.050166637 -0.0022750488
0.09274599 0.05532591 0.43044594 0.021003254 -0.03887654 0.064317696 -0.021499876 0.045843985
0.078659266 0.3088417 -0.042297762 0.018619843 0.0053775907 -5.2072108e-05 0.17233029 -0.037641123
0.04825078 0.00034320832 -0.028884258 -0.023498498 -0.0014642105 -0.017425872 -0.2035306 0.027988285
00000000: 8eff 9d3d 18b4 913c 5331 b1bd 3451 eb3c
00000010: 8c73 2cbd 5402 9dbd 5fe2 83be d535 443d
00000020: ebbf 403d d6d0 73bc e06f a93a 0491 9a3c
00000030: 6c5c 7d3d 2892 a638 7e96 943d e040 ff3b
00000040: 7656 823e a07c d8bb 0c29 2bbc 46dc 783e
00000050: 7142 f73c b2d4 6bbe ed55 00bf 20b2 e3bc
00000060: b65b 2fbe bbcc d73d 585f a2bc a7b0 e43d
00000070: ad8f efbd 58c1 2abd 3de2 38ba eeec 09bb
00000080: cfae 03bd 6456 fe3c 356a 0bbd 8a49 f93c
00000090: 0061 abbd c3f8 b7be 2bc3 1f3e 6cef 753d
000000a0: 9a94 0d3e 0895 603c 94b1 033e ce92 a9bd
000000b0: e8ca 463a 7681 ea3d 2d46 a13d 2926 37be
000000c0: 400a f4ba a0e0 72bb 16fd e73d e6ae a33d
000000d0: f724 b63c 2beb afbe a877 863e e6bb fe3d
000000e0: 70e4 1ebe 3006 aa3c c257 b4bc 307c 133b
000000f0: 6032 4e3b 12ee a13c 45a3 073e 2c3b 8cbd
00000100: 0e30 763d 8657 e83c 8bfe 303d a0d0 713d
00000110: 94f9 13be c480 953d 5c6a 4abe cef1 823c
00000120: cce6 003c 58c8 72bc 1863 c8bb a261 b03c
00000130: 4657 293c fad7 12bf e474 3a3c 5d39 3e3d
00000140: deea 11be 5a7b a73c 1aba 8ebe 47a1 363b
00000150: 6cfc 07bd 27c2 24be 8254 7fba bd73 813e
00000160: 1a3f e63d 7149 3cbe 50c7 783d 90d1 3a3d
00000170: d018 27be c5a8 683d 3538 aabd 0ff0 a93c
00000180: 5fa6 b7bd fcca 873c f8c8 d3be 0b9c 9b3d
00000190: a07f 23bc d089 103c a8fb 1bbd 9845 10bb
000001a0: 7eef 96bd 31ad 363d 86a8 9e3d 9008 303b
000001b0: 6212 c23d 6035 0bbc 9bab f73c f43f 8c3d
000001c0: 9b74 0abe cb08 d23d b2ef 23bd 38c9 d03d
000001d0: ed7f 3a3d 19d2 1bba bb32 723e b57c 38be
000001e0: 0826 503e 1806 1bba 456d b73c ac1c 9d3c
000001f0: beb0 bbba 2179 86bd baf7 f8bd 499f d8bc
00000200: 6426 263d 7097 28bc ac2d 75be 9697 bfbd
00000210: e8ec a6bc 99d1 b5bd 8bd6 f0be 605d aebc
00000220: 3808 a33e da97 843d 74bf d8bb ce46 fabc
00000230: e1eb aa3d 9f8e 5139 d473 3cbe 3023 053c
00000240: 9e3b c53e 78de 41bc 8fbc 433d 92b1 433e
00000250: a266 b0bc b893 fe3c c9e8 ad3e c0d2 77bc
00000260: 7f13 4bbe 25d4 073d a0e0 fcbb 50b3 c23c
00000270: 9ec5 8bbe a005 41bd fe8d e5b9 1edf 0ebb
00000280: 2513 61bd f378 8d3d e239 febd 06ab bc3d
00000290: da5c 9abd 2790 c63d f418 993e c98a 01bd
000002a0: 80fb 7dbc ea1e 6b3d b83b 533e 694d 48be
000002b0: 0ce9 133a a641 c43e 4734 b13e b9c1 4abe
000002c0: 60f7 1e3c d6c4 923c f6d6 a6bc c514 eb3c
000002d0: d68b 1abc 6e4d 193f b9b9 313e ac89 383c
000002e0: a592 9dbe 90ae 913d 906f 783b 66da 7a3d
000002f0: 3296 8c3d ea08 dcbc e30f 653e 2c06 423e
00000300: 5750 373c 1da4 793c a8d6 a63c 6806 263e
00000310: b5d3 b7bd 0208 823d e46a 6cbe acff 423d
00000320: 30d6 a0bd 2a88 b63d 00ac 603d f095 783a
00000330: 8c5f 85bb 64e6 a63e 9d32 083f c89d 9fbb
00000340: 6f4b 86bd f4c5 923c db7f 2abe fec3 363b
00000350: 0cc2 4abc 1629 bf3e a05f 8db8 0234 6b3d
00000360: 082f 17bc 2441 bfbd 78b0 3b3d 5bb3 d1bd
00000370: a99e 68be 2c50 a83c 4c0e 6c3d a0be 07bd
00000380: 413b 83bd 6980 323e c184 86be f8c3 01bc
00000390: f261 0a3d 30d2 2dbd 887b 4dbd fc18 15bb
000003a0: 9cf1 bd3d 6c9d 623d 6963 dc3e 040f ac3c
000003b0: 023d 1fbd ffb8 833d 8220 b0bc e7c6 3b3d
000003c0: 1c18 a13d 8020 9e3e 6b40 2dbd a488 983c
000003d0: 8036 b03b 0068 5ab8 5a77 303e 942d 1abd
000003e0: 9ca2 453d a4f0 b339 ae9e ecbc ec7f c0bc
000003f0: c0ea bfba b4c0 8ebc 536a 50be b047 e53c

mask f4 [104]
1.0 1.0 1.0 1.0 1.0 1.0 1.0 1.0
1.0 1.0 1.0 1.0 1.0 1.0 1.0 1.0
1.0 1.0 1.0 1.0 1.0 1.0 1.0 1.0
1.0 1.0 1.0 1.0 1.0 1.0 1.0 1.0
1.0 1.0 1.0 1.0 1.0 1.0 1.0 1.0
1.0 1.0 1.0 1.0 1.0 1.0 1.0 1.0
1.0 1.0 1.0 1.0 1.0 1.0 1.0 1.0
1.0 1.0 1.0 1.0 1.0 1.0 1.0 1.0
1.0 1.0 1.0 1.0 1.0 1.0 1.0 1.0
1.0 1.0 1.0 1.0 1.0 1.0 1.0 1.0
1.0 1.0 1.0 1.0 1.0 1.0 1.0 1.0
1.0 1.0 1.0 1.0 1.0 1.0 1.0 1.0
1.0 1.0 1.0 1.0 1.0 1.0 1.0 1.0
00000000: 0000 803f 0000 803f 0000 803f 0000 803f
00000010: 0000 803f 0000 803f 0000 803f 0000 803f
00000020: 0000 803f 0000 803f 0000 803f 0000 803f
00000030: 0000 803f 0000 803f 0000 803f 0000 803f
00000040: 0000 803f 0000 803f 0000 803f 0000 803f
00000050: 0000 803f 0000 803f 0000 803f 0000 803f
00000060: 0000 803f 0000 803f 0000 803f 0000 803f
00000070: 0000 803f 0000 803f 0000 803f 0000 803f
00000080: 0000 803f 0000 803f 0000 803f 0000 803f
00000090: 0000 803f 0000 803f 0000 803f 0000 803f
000000a0: 0000 803f 0000 803f 0000 803f 0000 803f
000000b0: 0000 803f 0000 803f 0000 803f 0000 803f
000000c0: 0000 803f 0000 803f 0000 803f 0000 803f
000000d0: 0000 803f 0000 803f 0000 803f 0000 803f
000000e0: 0000 803f 0000 803f 0000 803f 0000 803f
000000f0: 0000 803f 0000 803f 0000 803f 0000 803f
00000100: 0000 803f 0000 803f 0000 803f 0000 803f
00000110: 0000 803f 0000 803f 0000 803f 0000 803f
00000120: 0000 803f 0000 803f 0000 803f 0000 803f
00000130: 0000 803f 0000 803f 0000 803f 0000 803f
00000140: 0000 803f 0000 803f 0000 803f 0000 803f
00000150: 0000 803f 0000 803f 0000 803f 0000 803f
00000160: 0000 803f 0000 803f 0000 803f 0000 803f
00000170: 0000 803f 0000 803f 0000 803f 0000 803f
00000180: 0000 803f 0000 803f 0000 803f 0000 803f
00000190: 0000 803f 0000 803f 0000 803f 0000 803f

design_mask f4 [104]
1.0 1.0 1.0 1.0 1.0 1.0 1.0 1.0
1.0 1.0 1.0 1.0 1.0 1.0 1.0 1.0
1.0 1.0 1.0 1.0 1.0 1.0 1.0 1.0
1.0 1.0 1.0 1.0 1.0 1.0 1.0 1.0
1.0 1.0 1.0 1.0 1.0 1.0 1.0 1.0
1.0 1.0 1.0 1.0 1.0 1.0 1.0 1.0
1.0 1.0 1.0 1.0 1.0 1.0 1.0 1.0
1.0 1.0 1.0 1.0 1.0 1.0 1.0 1.0
1.0 1.0 1.0 1.0 1.0 1.0 1.0 1.0
1.0 1.0 1.0 1.0 1.0 1.0 1.0 1.0
1.0 1.0 1.0 1.0 1.0 1.0 1.0 1.0
1.0 1.0 1.0 1.0 1.0 1.0 1.0 1.0
1.0 1.0 1.0 1.0 1.0 1.0 1.0 1.0
00000000: 0000 803f 0000 803f 0000 803f 0000 803f
00000010: 0000 803f 0000 803f 0000 803f 0000 803f
00000020: 0000 803f 0000 803f 0000 803f 0000 803f
00000030: 0000 803f 0000 803f 0000 803f 0000 803f
00000040: 0000 803f 0000 803f 0000 803f 0000 803f
00000050: 0000 803f 0000 803f 0000 803f 0000 803f
00000060: 0000 803f 0000 803f 0000 803f 0000 803f
00000070: 0000 803f 0000 803f 0000 803f 0000 803f
00000080: 0000 803f 0000 803f 0000 803f 0000 803f
00000090: 0000 803f 0000 803f 0000 803f 0000 803f
000000a0: 0000 803f 0000 803f 0000 803f 0000 803f
000000b0: 0000 803f 0000 803f 0000 803f 0000 803f
000000c0: 0000 803f 0000 803f 0000 803f 0000 803f
000000d0: 0000 803f 0000 803f 0000 803f 0000 803f
000000e0: 0000 803f 0000 803f 0000 803f 0000 803f
000000f0: 0000 803f 0000 803f 0000 803f 0000 803f
00000100: 0000 803f 0000 803f 0000 803f 0000 803f
00000110: 0000 803f 0000 803f 0000 803f 0000 803f
00000120: 0000 803f 0000 803f 0000 803f 0000 803f
00000130: 0000 803f 0000 803f 0000 803f 0000 803f
00000140: 0000 803f 0000 803f 0000 803f 0000 803f
00000150: 0000 803f 0000 803f 0000 803f 0000 803f
00000160: 0000 803f 0000 803f 0000 803f 0000 803f
00000170: 0000 803f 0000 803f 0000 803f 0000 803f
00000180: 0000 803f 0000 803f 0000 803f 0000 803f
00000190: 0000 803f 0000 803f 0000 803f 0000 803f
